src/model/HIPT/inference/mean_pooling_best_model.pt (torch, 284271 bytes, 15 tensors)

module.hidden1.weight f4 [96, 192]
00000000: 476d 033d 930f 5bbd b962 0c3c 1b10 8ebd
00000010: 4971 bd3b 8805 82bb 5b0d 00bd cdc6 56bd
00000020: 7e05 9d3d aa61 003d 5d57 d03c a1e3 0bbc
00000030: 3989 8abc 2bc2 34bc 0575 803c 2017 97bd
00000040: 0ca9 3f3d c1d5 14bd 2578 bc3c 775e acbb
00000050: 9d1e 183d 2427 043d 3ed7 3bbc 5c0d 91bd
00000060: 7e37 7d3b 1e51 5cbd 82f1 a73c 5c72 043d
00000070: 387b 1fbd 3718 283d 2fe1 4d3d 5a23 fe3c
00000080: 7355 0c3c 99ff f5bc e58c 30bd 8902 8f3d
00000090: 4fa1 e1bc d96a 1abd 3956 713d 0ea3 863d
000000a0: 0223 b43d 3c89 633d 67ee 08bd 2c21 21bd
000000b0: cc97 173d 8659 d7bb ffe0 8f3c f866 95bd
000000c0: 480b 94ba fb5f 15bd b3a2 e9bc 447d 84bd
000000d0: f155 853d d223 cabc b43a 81bc da28 4eb8
000000e0: 10f4 96bc ee74 e83c acd3 6c3c 70f7 24bd
000000f0: ea76 463d 4df3 87bd 27e5 3abc 2d3b 16bd
00000100: 49bc 933d 72b5 033d 9e9b 97bd e206 8b3d
00000110: 2609 703d f8bb 333d a7a5 02bd 247f 53bc
00000120: 420f 8c3d 01ee 84bd 4c36 393d c9d5 923c
00000130: 102e 9bbb 3eca 3d3c 127b 8fbc ba46 65bd
00000140: f70c 01bd 662b 863d cdc2 6ebd 64ff 473b
00000150: 6169 2dbd 5658 f1bb e5f6 41bd 3dab 1b3b
00000160: 7081 1fbd 5d97 fcbc f755 0a3d 49ed 38bd
00000170: 70ae b4bc 31fb c4bc d1aa 13bd 021d 853d
00000180: 3332 993c fa5b 2a3d c7fc 453c ebfd 0bbd
00000190: 1d05 81bd ac0d 2fbd 7614 e9bc c362 803d
000001a0: 0a39 68bd 1aa6 07bd 79ff bd3c e97e f2bc
000001b0: e6bb 46bc 2c5b 453d 0741 b13c 4481 7dbd
000001c0: d98b 9bbb 19f3 6fbd 65a5 85bd c3c8 b33c
000001d0: 1804 f03c 9845 04bb 20b1 77bd 6eaf 2fbd
000001e0: 48f5 97bc 0da5 da3c 45e2 e83c 0e1e 69bc
000001f0: c4fa 1ebd 1778 8ebb 6b61 81bc de2c 27bd
00000200: 88cc 153d 3296 4cbc ab3d 723d 9e63 263d
00000210: 7218 89bd f705 2dbd 3362 573d 436c 8c3d
00000220: 1318 05bd e422 95bd e2ee 623d 7c8f e9ba
00000230: ddfe 54bd e1ee 6fbd c82d 7b3a 2351 36bd
00000240: 967e d33b fc41 a13d 51c5 f33c cb39 0a3d
00000250: 216c 11bd bc51 483d 57dd ae3c ec0f 0c3c
00000260: 220e 18bc 47fe 7ebb b7c1 9b3b 8f45 86bd
00000270: 746f 09bd c4b9 c9bc 3863 203d e6bb 01bc
00000280: 6254 243d 5c4e 40bd 5c78 50bd d0df 4cbc
00000290: e9f1 ab3c 7ce0 87bd fe30 1f3d b31b dd3c
000002a0: 5bb2 cdbc f873 433d 2ad2 67bd 3a55 4f3d
000002b0: 0568 fcbc 2691 25bd 17b5 3b3c 69e7 a8bd
000002c0: 5aa8 583d 9ec1 613d bb1f a43d 3bf5 6dbd
000002d0: 9f75 713d 7a2b 18bd 3d10 66bd 747a 823d
000002e0: 5a04 03bd fb0f a0ba 2ddb 423c 771b 5ebd
000002f0: 5517 5d3d 7d62 f23c 5285 6eba 38aa 393d
00000300: 9ede bdba c57c 533d f1ff 393d 67dd 72bd
00000310: b8b3 22bd 354f 58bd 2d6f 8bbc 3192 5ebd
00000320: b3a1 52bd 434b b2bc 27ed 78bd 4afc 1cbd
00000330: 0b86 6d3d e4b7 40bd dbc3 06bd 89f8 03bd
00000340: 5db2 3dbd 7ac1 773d 9415 19bd 7a2a 91bd
00000350: bc36 133d ca20 cdbb 70b8 87bd 3084 4b3d
00000360: fa50 01bd b002 7bbd cbaa babc a4ae 12bd
00000370: e4bd 583c e295 e0bc 1ece debc 7f31 29bd
00000380: eff4 d03b cc1c e23b fa17 e6bc 9faa 3abd
00000390: dac8 73bc 0146 4bb9 8cfd cabc 9e7e 5c3c
000003a0: 449d 253c a7f4 d23b fc1b 633d 2983 3fbd
000003b0: 69a6 09bd 8fbf d1bc 287a ff3c c87a 03bc
000003c0: 3367 31bd 777f dc3b dff7 463d 26eb 1bbd
000003d0: bf3e 053d 3fe8 223d 2ff0 543d a1cf 52bd
000003e0: 60cc 40bd f98f 073d 634c 323d bb12 39bd
000003f0: 1c5e f0bc efff 723d 955c 793d fcee 35bc
0.032086637 -0.05348165 0.008568459 -0.069366656 0.005781327 -0.0039679445 -0.031262737 -0.052435685
0.07667063 0.03134314 0.025432283 -0.008538158 -0.016911136 -0.011032621 0.0156808 -0.073774576
0.046792075 -0.036336664 0.023006508 -0.0052602845 0.03713857 0.03226389 -0.011464892 -0.07082626
0.0038637812 -0.053788297 0.020500902 0.032335624 -0.03893587 0.041038718 0.05026358 0.031022716
0.008565295 -0.030029105 -0.043103117 0.069829054 -0.027542738 -0.037699554 0.05892012 0.06574069
0.0879574 0.0555508 -0.033430483 -0.039338276 0.03701 -0.0065719513 0.017563341 -0.0729503
-0.0011294866 -0.036468487 -0.028519964 -0.06469205 0.06510533 -0.024675284 -0.015775062 -4.9152273e-05
-0.018426925 0.028376069 0.014454763 -0.040275037 0.04845325 -0.06638203 -0.011407173 -0.03667753
0.07213647 0.03215546 -0.074027285 0.06788422 0.058602475 0.043880433 -0.03189626 -0.012908731
0.06838848 -0.06490708 0.045217797 0.017924206 -0.0047357157 0.011583863 -0.01751474 -0.055975653
-0.031506505 0.06551246 -0.058291245 0.0030517215 -0.042336825 -0.007365267 -0.047354598 0.002375319
-0.0389418 -0.030833894 0.03377339 -0.045148168 -0.022055835 -0.024045559 -0.036051575 0.064996734
0.018700695 0.041591622 0.012084193 -0.034177702 -0.062998034 -0.042737648 -0.02845214 0.06268837
-0.05669502 -0.03311739 0.023193108 -0.029601531 -0.012129759 0.04818265 0.021637453 -0.061890855
-0.0047468957 -0.058581445 -0.06525687 0.021946317 0.029298827 -0.0020183083 -0.060471654 -0.042891912
-0.018549576 0.02669003 0.028428206 -0.014228357 -0.038813367 -0.004347812 -0.015793523 -0.040814273
0.03657201 -0.012486981 0.059140842 0.040622346 -0.06694116 -0.042242017 0.052583884 0.06856587
-0.032493662 -0.072820455 0.055403598 -0.0017819251 -0.05200087 -0.058577422 0.0009581712 -0.04451097
0.006454299 0.07873914 0.029757174 0.033746522 -0.03550351 0.048906073 0.021345777 0.008548718
-0.009280713 -0.0038908885 0.004753317 -0.06556236 -0.033553556 -0.024624713 0.039157122 -0.007918334
0.040119536 -0.04694973 -0.050896034 -0.012504533 0.020989375 -0.06634614 0.038865082 0.026990747
-0.02510946 0.04771802 -0.056596912 0.050618388 -0.03081132 -0.040421627 0.011456749 -0.08247263
0.052894928 0.05511629 0.080138646 -0.058095198 0.058950063 -0.037150837 -0.05616783 0.06371012
-0.03198657 -0.0012211794 0.011893076 -0.05422541 0.05397733 0.029587978 -0.0009098846 0.04532835
-0.0014485901 0.05163266 0.0454101 -0.059293177 -0.039722174 -0.052809913 -0.017020786 -0.054338638
-0.05142374 -0.021764403 -0.06077304 -0.03832654 0.05798916 -0.04705037 -0.032901626 -0.032219443
-0.04631268 0.060487248 -0.037374094 -0.0708818 0.03594087 -0.0062600123 -0.066269755 0.04968661
-0.031571366 -0.06128186 -0.022786519 -0.03581108 0.013228867 -0.02741522 -0.027197894 -0.04130697
0.0063768546 0.0069004055 -0.028087605 -0.045572873 -0.01487943 -0.00019385667 -0.024779104 0.013457922
0.010108296 0.0064378562 0.05544661 -0.046755943 -0.033605967 -0.025604038 0.031186178 -0.008024879
-0.04331131 0.006729062 0.048576232 -0.038066052 0.032530542 0.03977227 0.05198687 -0.05146754
-0.047069907 0.033096287 0.04352988 -0.04518388 -0.02934175 0.05932611 0.06087931 -0.011104342

module.hidden1.bias f4 [96]
00000000: 126e 7cbc d002 253d 8250 343d b79b 70bc
00000010: 1c78 22bc f327 2a3d ad21 f9bc bd3d 173d
00000020: a79a 853d 298b 643d e6e0 883d f5c3 65bd
00000030: db3f 8bbc 456c 76bd 0c31 6ebd 53f6 2a3d
00000040: b8a3 543d d75b 9dbd 12c4 e0bc 97e8 88bc
00000050: 0c61 903d 6887 eabb 66d6 dd3c 286f 49bd
00000060: 425f 97bc 96b8 4e3d a68c 093d cfb4 d03c
00000070: 58b8 573c c60d 3d3d 89d4 8a3c e292 153d
00000080: 6136 78bd 8732 24bc 8676 7abd 8722 32ba
00000090: c587 aa3b 698f fa3b 9340 bdb8 3b19 543d
000000a0: 0bbd 7ebd 0d97 53bb 1721 6fbd dbfe 5e3c
000000b0: 4f96 41bd 4399 dabc 9291 753d 877b 7dbd
000000c0: a536 23bd e417 3e3d f752 a0bc d9e0 453d
000000d0: 1f7a 6f3d 4c17 0e3c f6c4 79bd 8753 89bd
000000e0: 8931 8cbd f82d 65bc 2c6e 363d fa13 553d
000000f0: 0331 91bc d455 1e3d d670 5a3c 8d79 893d
00000100: f75a 52bd 24c4 0fbb 6c08 8f3d b7ec 5bbd
00000110: fe09 423d 01af b5bc bf7d 883d b2d4 273c
00000120: effd e53c 2236 a2bd b8f1 7ebd 46b8 10bd
00000130: 8840 84bd 484c 2c3d db2e 6f3d e5f0 2c3d
00000140: 4201 493d 6c97 94bd 3457 8abc ba45 c2bc
00000150: 4c3d 223d afad 5a38 c18e aa3c 04f4 e13c
00000160: 71e2 43bd 7ead d4bc 591e b53c d40f a83c
00000170: 7aff 41bd aee0 9dbb a503 30bc 2cd6 063d
-0.015407102 0.040285885 0.04402209 -0.014685563 -0.009916332 0.041542005 -0.030411566 0.036924113
0.06523638 0.055796776 0.06683521 -0.056095082 -0.016998222 -0.060161848 -0.058152243 0.04173882
0.051913947 -0.07683533 -0.027437244 -0.01671247 0.0704976 -0.007157255 0.027079772 -0.049178272
-0.01847804 0.050469004 0.0335814 0.025476841 0.01316651 0.046155713 0.016947048 0.03651703
-0.060598735 -0.010021812 -0.06114819 -0.0006795306 0.0052041733 0.0076464904 -9.02425e-05 0.051781874
-0.062192004 -0.0032286078 -0.058381166 0.013610567 -0.047262486 -0.026684409 0.05995328 -0.061885383
-0.039847035 0.046409503 -0.01957081 0.048310135 0.058466073 0.008672547 -0.060978852 -0.06705385
-0.068453856 -0.013988011 0.04453866 0.052021004 -0.017723566 0.03865607 0.013332566 0.06712637
-0.051356282 -0.0021936977 0.06984028 -0.053692546 0.04737281 -0.022178175 0.06664609 0.010243582
0.028075187 -0.07920481 -0.06224224 -0.035331987 -0.06457621 0.042064935 0.058394294 0.042221922
0.049073465 -0.07255444 -0.016887285 -0.023714889 0.03960924 5.2137006e-05 0.020820023 0.027582176
-0.047823373 -0.025961634 0.022109197 0.02051536 -0.047362782 -0.0048180437 -0.010743056 0.032919094

module.hidden2.weight f4 [48, 96]
00000000: 4d0e 2b3d 5cc8 ae3c 73e7 f2bb 511c a4bc
00000010: 25e8 dfbd 2a20 753d 6b53 d03b 5ee2 9a3c
00000020: 6b31 e03c 5e01 d9bd add7 7f3d fb86 c03d
00000030: bfbc babd a05c cf3d 4872 b1bd c5bf 9fbd
00000040: 828e 943d 3099 5d3d e5b3 343d d3f3 2b3c
00000050: 1789 d9bc 62d6 3a3d 7491 1abd 0073 3f3d
00000060: 066f 153d ed0a 93bd 4f51 1dbd c637 f83c
00000070: 867d d2bc a19e 14bd f14f dabc dd75 d7bc
00000080: 0386 b33d 4509 9ebd b802 743d bfd5 a33d
00000090: cbbe 223d 7efd 9d3d 46bc c23d 9382 87bd
000000a0: 1372 453d fe6b dc3b a588 17bd 2dc8 84bd
000000b0: 1de5 01bd 1131 42bd e6c4 3bbd f48b 1d3c
000000c0: 3420 5b3c e5c8 a23d 0db4 943d c138 803d
000000d0: 7a4a a0bc b38c 633d 840c eabc d152 90bd
000000e0: 6f6c 93bd 6612 993d f63a 11bc df5e b9bd
000000f0: bb33 8cbd f994 943d 5a4a 90bd 2174 d9bc
00000100: 165e 4bbc 6fe5 94bd 66ef 78bd 889f 853d
00000110: ecf4 20bb efd7 c13d 8a50 ca3d 92ab b53c
00000120: bb8c 04bd 2596 5c3c f480 77bd 9c87 293d
00000130: fbeb 31bd b123 95bd a448 12bd 9393 67bd
00000140: f357 d93c f64e e6bc 9ca4 b8bc 130f d3bd
00000150: 9491 a43d 0f33 a73d c8d7 e0bd 20b3 8c3d
00000160: a901 52bd a7f8 54bd 810b 88bc 63c6 9bbc
00000170: e106 18bc c9b9 1abd 69d8 88bd 3859 b9bd
00000180: 77b1 7dbd cc0e 1d3d 5667 8ebd e65b 92bd
00000190: 4a9d 55bd ab89 b1bc 8216 5b3d 3a85 8a3d
000001a0: 3658 8b3d 3f19 7abc 007f 903c 6bee 423d
000001b0: d9f4 8cbc 5509 503c 5c39 bebd f176 b33c
000001c0: 8ced 8c3d d926 c13d 7f53 9b3d 5cf5 533d
000001d0: 9082 843d 8fa9 bfbc b290 28bd b246 6cbd
000001e0: 442e a43d 0192 0dbd c3db 81bd 0933 04bc
000001f0: 8c97 bdbd 99e3 31bd e0a0 a7bc b012 993a
00000200: 2bf0 babc 7536 11bd b1c7 a03d ea68 48bd
00000210: 92f1 c73c e411 283d eeb1 b53d 8017 0a3d
00000220: 12a2 f9bc 6adb 903c 0555 21bd d5fd 9e3c
00000230: bf59 9ebc 2a96 f63c 86cf 02bb d06b 16bd
00000240: a9a4 1a3b ac54 e1bc 94c2 d23c 1b98 a53b
00000250: 7da3 90bd 70ee 5cbc cfa0 debd ff3e 9b3d
00000260: 9602 42bd dc3e e73c f000 d4bc 86ff 9d3d
00000270: dd82 f13b 2fd7 22bd 0dc4 ab3d 2a4b 43bd
00000280: 5044 44bd fe9f 673c b0e3 b33a 4e77 49bc
00000290: 5ba6 3d3c ac79 e53c e7c0 a0bc 4a22 b73d
000002a0: 91d6 283d 98b8 3f3d d493 6c3d af2d 8bbc
000002b0: 07cf f2bc a26c e13d f0b2 85bd f0ec a73d
000002c0: b229 8a3d 01a2 ba3d 058f b43c 36e2 d2bc
000002d0: 116a 273d 1356 d63d def4 a7bd f171 b93b
000002e0: b78b 97bd a7b4 463d f177 96bd dc15 d6bc
000002f0: 5922 a7bd b7c1 9fbd 5fdd e8bb c41b babd
00000300: f9a2 753d 1354 9cbd c55d 97bd f3eb 29bc
00000310: 7ca1 6ebd 329d 2e3d f8f4 903d 3244 b73d
00000320: a8ff c8bd 4111 b8bc 07e6 6bbd 00b0 39bd
00000330: 0ecc 4d3d a523 753d cbfd 923c 6044 15bd
00000340: 78f7 4a3d 71ae d13c 183d da3b a0ea acbd
00000350: fdbb 5fbd aab2 393d 7242 9abd 8a7c bc3d
00000360: 51bb 0fbc fd00 c8bc d7e8 7e3d 6816 063d
00000370: 645b 643b 2f09 c8bd 345f 5a3d e13d 7ebd
00000380: 85fe 033b 52c7 e13c 3501 2b3d 1f31 033c
00000390: 63ad 753d d5f6 ebbd d733 643b 0c72 fabc
000003a0: da44 b739 e9fa a33d 0bcc 74bd 3761 ba3d
000003b0: b3ab 05bd 5d37 c13d 6d78 b03d bfc8 28bd
000003c0: 093d d13d bbc6 8abd 660e 853d 23d6 a6bc
000003d0: c078 3d3d 2399 333b 9cb1 a13d 8dc3 88bd
000003e0: 8f21 803d c2c9 37bd 86bc 153b 06f4 883d
000003f0: b343 953d 325f b53d c7be 16bd e8a9 abbd
0.041761685 0.021335773 -0.007412845 -0.020033034 -0.1093295 0.059845127 0.0063576004 0.018906768
0.027367314 -0.10595964 0.062461544 0.094007455 -0.09118032 0.10125089 -0.086643755 -0.07800249
0.07253744 0.05410117 0.044116873 0.010495144 -0.026554627 0.045614608 -0.03773637 0.046740532
0.036482833 -0.07179818 -0.03840762 0.030300032 -0.02569462 -0.036284093 -0.026649447 -0.026301319
0.08765795 -0.07716612 0.059572905 0.07999753 0.039732736 0.077143654 0.095085666 -0.06616702
0.048204493 0.006726741 -0.03699555 -0.06483493 -0.03171264 -0.047410075 -0.045842074 0.009615887
0.013374377 0.07948474 0.072609045 0.06260825 -0.019566763 0.055554103 -0.028570421 -0.07047046
-0.071984164 0.07474212 -0.008864155 -0.09051298 -0.06845804 0.07254977 -0.070454314 -0.026544632
-0.012412569 -0.072703235 -0.060775183 0.06524569 -0.0024560047 0.09465014 0.09878643 0.022176538
-0.032360774 0.013463532 -0.060425714 0.041389093 -0.04343794 -0.07282198 -0.035713807 -0.056537222
0.026531195 -0.028113823 -0.02253943 -0.103056096 0.08035579 0.081640355 -0.10978657 0.06870103
-0.051271114 -0.051994946 -0.016607048 -0.019015497 -0.009278984 -0.037774835 -0.06681902 -0.0905022
-0.06193682 0.03834419 -0.069533035 -0.071464345 -0.052151956 -0.02167209 0.053488262 0.06763692
0.06803934 -0.015264808 0.017638683 0.047590654 -0.017206596 0.012697537 -0.09288284 0.021907302
0.06881246 0.09431238 0.07584285 0.051747665 0.06470215 -0.023396282 -0.041153617 -0.057684608
0.08016637 -0.03456307 -0.06340744 -0.008068808 -0.09257421 -0.043429945 -0.020462453 0.0011678543
-0.0228196 -0.035452325 0.07850588 -0.04892818 0.024407182 0.041032687 0.08871828 0.033713818
-0.030472789 0.01768275 -0.03938772 0.019408146 -0.019329904 0.0301009 -0.001996012 -0.03672391
0.002359668 -0.027506195 0.025727548 0.005053533 -0.07062433 -0.013484582 -0.108705156 0.07580375
-0.047365747 0.028228216 -0.025879353 0.07714753 0.0073703364 -0.039755996 0.08387003 -0.047679104
-0.04791671 0.014137266 0.0013724472 -0.012296511 0.011575307 0.02801212 -0.019623233 0.08942087
0.04122025 0.0468069 0.057758167 -0.016989557 -0.029639734 0.11007048 -0.0652827 0.08199489
0.06746234 0.09112931 0.022040853 -0.025742631 0.040872637 0.10465636 -0.082010016 0.005659335
-0.07399695 0.048512127 -0.07347096 -0.02613347 -0.08160848 -0.0780062 -0.0071064676 -0.09087327
0.059969876 -0.076332234 -0.07390932 -0.010371196 -0.058259472 0.042630382 0.07077974 0.08948554
-0.098143876 -0.022469165 -0.057592418 -0.045333862 0.05024343 0.059848446 0.017943284 -0.03644216
0.04955241 0.025595875 0.006660115 -0.08443189 -0.05462264 0.045336403 -0.07532205 0.092034414
-0.008772687 -0.024414534 0.062233772 0.032736212 0.0034844512 -0.09767377 0.05331345 -0.06207073
0.002014072 0.027560864 0.041749198 0.008007317 0.059979808 -0.11521689 0.0034820938 -0.03057196
0.00034955778 0.08006842 -0.059764903 0.091005735 -0.03263445 0.09434388 0.086167194 -0.04120707
0.1021672 -0.06776186 0.06496887 -0.02036578 0.046257734 0.002740451 0.078952044 -0.06677923
0.06256401 -0.044870146 0.0022847964 0.06687169 0.07288303 0.08856048 -0.036803033 -0.083820164

module.hidden2.bias f4 [48]
00000000: 3794 0e3d bbc2 b33c 95ea 9fbd cf4c b7bd
00000010: 6ef0 c5bd b085 bc3c 84d4 c13d bf43 8c3d
00000020: e7a4 d33d 2c56 d4bc 4af1 84bd ff4c 6f3d
00000030: 4063 583d a7a6 4f3d 095a 883d 28b5 c13d
00000040: 1af1 46bd 54a4 eebb 082c 493d ec14 81bd
00000050: e995 bbbc e901 b83d 33f1 b63d 7f2e 8a3d
00000060: 0b80 d1bc 1bf4 3fbd 989d cc3d a79a 363d
00000070: 34f8 593d cd62 b43d 3c32 41bc 768f a23d
00000080: 2fb0 833d 2aa0 abbd 0202 1bbc b4b6 883d
00000090: ab44 673d 0505 a5bc 3428 ba3d 3c4a 4dbc
000000a0: d3f1 c6bd d9b8 3c3d ffbb 93bd 1d24 05bd
000000b0: d510 59bd 2e28 debc 6673 b3bc b6fb 3b3d
0.034809317 0.02194344 -0.07808415 -0.08950197 -0.09664999 0.023012966 0.09464362 0.06848859
0.10334187 -0.025919996 -0.06491335 0.05842304 0.052829027 0.05069604 0.06657798 0.09458381
-0.048569776 -0.007282773 0.049114257 -0.06302819 -0.022898631 0.08984739 0.08932724 0.0674715
-0.025573751 -0.046863656 0.09990996 0.04458108 0.05321522 0.08807907 -0.011791762 0.07937519
0.06430089 -0.08380158 -0.009460928 0.06675473 0.05646197 -0.020143995 0.090896994 -0.012529906
-0.09714093 0.046074722 -0.07213592 -0.032505143 -0.052994568 -0.027118769 -0.021905612 0.045894347

module.regression.weight f4 [1, 48]
00000000: 7aa1 8cbd 5846 3fbd 2543 ac3d 5dce 26bd
00000010: 21f3 8ebd 01b1 a2bc d695 8c3d 36f0 0b3d
00000020: 8a61 71bd b5e8 28bc 99f5 873c e51c 993d
00000030: 6d47 953d 38b8 f6bd 3744 bb3d 7a7b 873d
00000040: 4b83 0e3e 02b4 92bd 1615 9d3d 6bc6 e13d
00000050: 3ef0 b2bd 992c b7bd b166 19be 4da1 b03d
00000060: a2a6 1fbe 4751 1c3d b142 c63c 8e91 113d
00000070: 1f4e 153e 0264 ae3c 4626 f7bd 1975 9dbd
00000080: ed20 abbd 4d5d d73c b084 fcbd e366 22bd
00000090: 3d38 723d 79da bf3d f691 16be 29ea 833d
000000a0: f6f3 b33d 443b b43d efb0 85bd dc0c a5bd
000000b0: bec2 533d f160 f63d 1fd4 c5bd d88d debd
-0.06866737 -0.046697944 0.08411244 -0.040724147 -0.06979967 -0.019859793 0.068645164 0.03416463
-0.05893091 -0.010309388 0.016596602 0.07476214 0.07289014 -0.12046856 0.0914387 0.06615348
0.13917272 -0.0716324 0.076700374 0.11024173 -0.08737229 -0.08944053 -0.1498058 0.08624516
-0.15590909 0.03816345 0.024201723 0.035539202 0.14580582 0.021287922 -0.12067847 -0.0768835
-0.083558895 0.026289606 -0.12329996 -0.0396489 0.059135664 0.09367842 -0.14704117 0.06441147
0.08786766 0.088003665 -0.06527888 -0.08059093 0.051699392 0.12030209 -0.096595995 -0.10866898

exp_avg f4 [96, 192]
00000000: 661d 14bb 88b5 f939 74bb 8abb 222e 66b9
00000010: 2c27 b1b9 479a 78bb 7add 243b 4c22 bf3a
00000020: 3b82 5aba cc47 9fbb 2b97 c1ba 65d6 8fba
00000030: 96ab 043b 2687 50ba c60b bcba 3aeb 293b
00000040: a2a9 7ebb 1b10 9c3b 8490 b139 42cf afba
00000050: 9fc9 993a 906c b13a 3fcc 4ebb fe97 8c3b
00000060: 7670 893a 618c ce3b 286d d3b9 10d2 8cbb
00000070: 4ca6 5c3b cf3a 78bb e5e4 8b3b 8059 68ba
00000080: ea43 7c3b f88c 34bb 78f7 8c3b a5c5 a13a
00000090: 2ac3 2f3a 419e db3b 6514 c7ba 44ff 14bb
000000a0: 1a8b 5fbb 4a70 1338 ba8e 033b 216a a4bb
000000b0: 8386 c83a bb5b 283a 95a6 6fba c0df 6ebb
000000c0: 1c13 33bb d3ca 1239 9937 a83b ad75 f139
000000d0: 025d 82bb f0d2 623a 3af4 eaba 6e22 21bb
000000e0: 0ccf 4e3a 739c 85bb 0756 f9ba 9f0b 76bb
000000f0: 4519 4cba 0756 d93b b35c 323a 7c65 a03b
00000100: b3da 89bb 4652 a5bb 9cc1 623b c787 d5bb
00000110: 0c70 4f3a 0a8a 69bb 6b1f 403b 0493 4638
00000120: 85cf a438 28f3 223b 5355 853a 9075 78b9
00000130: fe13 903b 35bf 59bb c6b9 023c 3735 2e3b
00000140: c3a8 8cbb 739d 7d3b c7cf bc3b b821 30bb
00000150: cfe5 ddbb 25d3 973b 85e0 99bb 3fff 393b
00000160: af86 82bb fd82 3e3b de0f 6fbb fc82 afba
00000170: 4982 2d3b e8e7 533b c250 adbb 08c5 2dbb
00000180: 29b6 afbb b411 5e3a ecd1 ab3a 0688 173c
00000190: a72f 1cbc d76f deba b08a 4d3b ff95 a8bb
000001a0: caaf ac3b 5556 98bb 4f9b a83b dc22 e43b
000001b0: 2e63 c6b9 38c1 b6ba 5f63 5fba 06ba 0bba
000001c0: f998 49bb e256 003b 5039 e239 ff98 263b
000001d0: f371 8dbb 3e87 5fba ff76 053b e50a 4b3b
000001e0: 7c65 c9ba 1a1d b1bb 3b0f e8ba cd6a 823a
000001f0: 02f8 373b 604d 9bbb 3c7c 34bb 08e3 df3b
00000200: 9256 a53a 817e fcba f2f1 92ba c419 f33a
00000210: 8e81 b5ba 987d bd38 a5e4 aa3b a6dd 65bb
00000220: d0fa b63a c0ff 3abb 729b 82ba e6ac 1a3b
00000230: 0b61 823b 25f8 82bb 1822 213b b6f3 5e3b
00000240: 0ede 41bb 9363 e1ba 0089 a0ba 071c 8dba
00000250: 445b 773a 2082 a4bb 9ed6 26bb 1909 6c3a
00000260: e86a c6ba 7ecd 22bb a217 d0b7 007c e13a
00000270: 894e a3ba 8101 c23b 2f1d 553b 2ac7 8dbb
00000280: 0c2f 48bb ac53 1bbb b1ea 39bb 5bd4 3b3b
00000290: 2176 96ba f696 cbba a16a f5b9 363e 82bb
000002a0: 97f2 7c3a a8cf 8d3b 2178 023c b586 713b
000002b0: 0dce 613b a238 c53a c16f cfba 16a9 e53a
000002c0: f937 ad3b ee03 c53b 4092 12ba d076 483b
000002d0: a1ab 8fbb bc90 1b39 07b5 1c3b 9197 5338
000002e0: b2e1 133b f2e0 a5ba 610d 86ba cd6a 6bbb
000002f0: e12c 90bb a536 7a3a afbe 973b e3b9 0dbb
00000300: 611d f239 1cdf 373b 901a cfba c367 ff3a
00000310: ae6b 92ba 2bba 903b 9b34 e3ba 0137 b6b9
00000320: 4938 d23a cfe5 7c3b d982 2eba 0247 193b
00000330: 2ba6 37ba b17c 1e39 af5c 343a 881f 09bb
00000340: bd2c 1cbb 6375 8abb c54b 97b9 5709 6e39
00000350: a307 12ba 1758 b0b8 61e7 723b 8861 e2ba
00000360: d85b 5dba 9b9f 51bb 0aa9 a8ba 7207 a3b9
00000370: cf67 42bb 66ae b03b 362f 0cbb 5aba 7cbb
00000380: 132e 78bb 3116 9a39 60ef 65bb 0096 933a
00000390: 597b aeba 6f04 7937 6fbd 1a3b be1b 663b
000003a0: 8614 8b3b abf5 feba aec1 18bb aa9d 1b3b
000003b0: 7e71 953a 271c a2bb 62af 09bb 5902 633b
000003c0: c847 d539 3390 d83a 1b7f dbbb bba2 33bb
000003d0: e565 523b cc0a 13ba 6628 883b 4146 98ba
000003e0: b1a8 043b 548d f73b 780c 863a f34d c53b
000003f0: e45c 6fba e2d8 8abb 9b09 77bb 0cc2 7abb
-0.002260053 0.00047628232 -0.004233772 -0.00021951695 -0.00033789256 -0.0037933753 0.0025156424 0.0014582365
-0.0008335446 -0.004860854 -0.0014769783 -0.0010973929 0.0020243875 -0.0007954709 -0.001434677 0.002592756
-0.0038858433 0.004762662 0.00033867743 -0.0013413208 0.0011733061 0.0013536382 -0.0031554846 0.00429058
0.0010485786 0.0063033556 -0.00040326384 -0.0042975023 0.0033668457 -0.003787685 0.0042692297 -0.0008863434
0.0038492628 -0.0027549844 0.0043019615 0.0012342228 0.0006704802 0.006702215 -0.0015188573 -0.0022735158
-0.003411001 3.515211e-05 0.0020074085 -0.0050175344 0.0015298877 0.00064223603 -0.0009141949 -0.0036449283
-0.0027324622 0.00013999203 0.005133581 0.00046054777 -0.0039783726 0.0008652648 -0.0017925568 -0.0024587172
0.0007889129 -0.004077488 -0.001902283 -0.0037543548 -0.0007785748 0.0066325697 0.00068039744 0.0048949104
-0.004206979 -0.005045208 0.0034600263 -0.00651643 0.00079131196 -0.0035635256 0.0029315602 4.7343798e-05
7.858783e-05 0.002486417 0.0010172523 -0.00023694918 0.0043969145 -0.003322554 0.007978862 0.0026582011
-0.004292579 0.0038698583 0.0057620737 -0.0026875567 -0.00677178 0.0046333247 -0.0046959543 0.0028380898
-0.0039833407 0.0029069774 -0.0036477963 -0.0013390477 0.002647536 0.0032334272 -0.005289168 -0.0026515145
-0.0053622914 0.0008471266 0.0013108826 0.009248739 -0.009532846 -0.0016970587 0.0031363182 -0.005144834
0.005269979 -0.0046489635 0.0051454674 0.0069621634 -0.00037839398 -0.0013943082 -0.00085215823 -0.0005330149
-0.0030761345 0.0019583036 0.0004314878 0.0025420783 -0.0043165623 -0.00085269276 0.0020365117 0.0030981835
-0.0015365328 -0.0054050805 -0.0017704734 0.0009950042 0.0028071408 -0.0047394484 -0.002753987 0.006832484
0.0012614301 -0.0019263775 -0.0011211021 0.0018547107 -0.0013847814 9.035616e-05 0.005215245 -0.003507474
0.0013960246 -0.0028533787 -0.0009964539 0.002360159 0.0039788536 -0.0039968663 0.0024586972 0.0034019775
-0.0029581818 -0.0017195813 -0.001224786 -0.0010765799 0.0009435902 -0.005020395 -0.0025457512 0.0009004041
-0.0015138062 -0.0024841721 -2.4806537e-05 0.0017203093 -0.0012459318 0.0059205894 0.0032518615 -0.0043267207
-0.003054562 -0.0023700995 -0.0028368647 0.002866051 -0.0011479297 -0.0015532661 -0.00046809486 -0.0039747013
0.0009649186 0.004327733 0.007963211 0.0036853973 0.0034455091 0.0015046785 -0.0015826152 0.0017521705
0.0052862135 0.0060124313 -0.0005591251 0.0030588396 -0.0043844734 0.0001483587 0.0023911612 5.0447477e-05
0.0022564945 -0.001265554 -0.0010227376 -0.0035921813 -0.004399881 0.0009544886 0.0046308856 -0.002162569
0.00046179726 0.0028056568 -0.0015800763 0.001948588 -0.0011171007 0.004416724 -0.0017334403 -0.00034754726
0.0016038503 0.0038589125 -0.0006657071 0.0023388271 -0.0007005657 0.00015114505 0.0006880266 -0.0020923335
-0.0023830377 -0.0042254194 -0.00028857417 0.00022700928 -0.0005570596 -8.408742e-05 0.0037064182 -0.0017271498
-0.0008444167 -0.0031986001 -0.001286776 -0.0003109533 -0.0029663926 0.0053918837 -0.0021390445 -0.0038563223
-0.003786926 0.00029389703 -0.0035085306 0.0011259913 -0.0013311907 1.4842589e-05 0.0023611446 0.003511175
0.00424439 -0.0019451877 -0.0023308801 0.0023745098 0.0011401621 -0.0049472037 -0.0021009077 0.003463885
0.00040680007 0.0016522467 -0.0066985018 -0.0027410227 0.003210419 -0.0005609214 0.0041552065 -0.0011617617
0.002024215 0.0075546894 0.0010227105 0.006021255 -0.0009130968 -0.00423728 -0.0037694934 -0.0038262634

exp_avg_sq f4 [96, 192]
00000000: 996e a035 57a7 e437 1e09 c036 32c6 6e36
00000010: c70c 8937 52d0 3b36 927e 0137 bc11 2137
00000020: 81cf f135 5771 9e36 5631 0436 321c e936
00000030: 0047 7536 2de8 6d35 1b97 2036 01d4 0436
00000040: e4fe d737 0b7e 7336 8868 8637 bbc6 2336
00000050: d073 3537 3c32 8a36 ca23 1937 57b6 3136
00000060: aa15 4c37 d898 8e36 ff90 b236 0f47 8736
00000070: 58ad 6b36 e412 7036 69d3 0736 51a3 d236
00000080: 9686 8a36 daa6 1836 c170 7936 c5ca 1937
00000090: c1c0 0537 7cc7 da36 0e33 c136 2d76 da36
000000a0: 220d db35 60af 0138 1095 1637 7be8 c235
000000b0: 360b 4e36 6da6 1437 b70d 1036 8e27 9837
000000c0: 28ef 3336 9073 be35 4669 a536 7a35 ac36
000000d0: 59a7 c936 3319 b436 8085 a937 0326 9f37
000000e0: c84f c036 f12d 4537 38be 8b35 4550 0738
000000f0: 9ac5 2e36 c98c ba36 6743 e736 2c40 1337
00000100: 7b7e 8737 7962 e936 1e5d 3937 a4ba 3f37
00000110: 9ecf 1636 0233 a336 d650 b836 43dc 2136
00000120: d4bd 7836 794a 4a36 3d91 2f36 319d bf36
00000130: 2f31 ee36 9643 5d36 3cc3 5e36 a546 bd37
00000140: 3302 5a37 f469 8c36 0ff6 a637 c77f fb36
00000150: 993b 3a37 50e7 ef37 609f dc37 7e8d d736
00000160: 9a19 8336 237d 0237 6050 3037 d3df 9a36
00000170: 3c2b 3f36 4efb 3b36 eec9 3a36 db08 4a36
00000180: b320 9c37 e4bf 5f37 d9fe c836 a167 1c37
00000190: f815 8d37 0f58 e535 bfec 1336 4a0f 8436
000001a0: ffa6 9e36 8de1 1837 763a 5736 60b6 cd36
000001b0: dda9 2c37 1727 8736 79b4 7036 7083 a037
000001c0: 9a33 1f36 e03e 0f37 daf7 2836 8715 4836
000001d0: 3f5d 9637 7bf1 fc36 3344 4037 d46e 0637
000001e0: be7c 7a37 eb64 4b37 dd15 1736 1d99 bf35
000001f0: 4c15 1f36 67d4 d537 7a6d 9435 34ca 8337
00000200: c424 4137 0121 ef36 c817 0536 399e 0037
00000210: de79 8237 91ba 8536 1523 cf36 f013 de36
00000220: 1d6a 5d36 0792 c937 14f5 3436 c449 8236
00000230: 4608 9d36 df00 0537 e16b 3637 d3f3 a936
00000240: c22a 3037 a886 5d36 ec88 6736 6b0b ca37
00000250: f846 1137 9896 1e36 50a4 f036 f143 8935
00000260: 8aa6 6d37 2466 b836 1832 1137 a13d 0037
00000270: 249a 0937 156b 4a37 6aa9 c136 901b c436
00000280: b2ec 3637 a6a0 2837 6dd0 5f36 eb50 1638
00000290: 6c9b 1537 9961 0c37 a6bc b935 cd0c 5336
000002a0: 1e88 1c36 7c80 d136 81bf fc36 7111 3936
000002b0: 7b05 cc36 713c 3d36 c714 a335 aaa6 9636
000002c0: 7e57 8237 e197 4e36 b90e 8b36 96f4 4e36
000002d0: 32c2 fe37 7b3a b635 e7d2 ca36 c8f3 b536
000002e0: b02a c335 4bc4 2537 0b55 4436 0e95 9436
000002f0: 60eb ed36 af24 5336 4d48 bc36 3057 0537
00000300: d173 5b35 36ab 6937 5df8 bf36 a1da c036
00000310: 912c 4e37 4144 2736 3ec7 a036 8bcd 1c37
00000320: 4bfa e535 2eb3 a836 5bd1 bf35 f41a 8e36
00000330: ef00 7636 e667 3d35 981e 1336 d31d d735
00000340: 8698 6c37 52fe 4936 3e0e 5037 4bab 0836
00000350: f644 d036 0f76 1e36 bd38 d636 1867 c735
00000360: 2288 0837 6598 2c36 6407 9536 6afe 8f36
00000370: ef92 7936 1d2f 2c36 cf03 9535 2f55 bb36
00000380: 5a05 7136 7b69 af35 eb94 1336 e660 0a37
00000390: 5257 e136 3005 ef36 b01c 9136 4b83 f036
000003a0: d9e3 3636 46c3 bb37 9889 bd36 9d58 ce35
000003b0: 3627 0936 0c29 d336 214e 2c36 28f6 2637
000003c0: aef5 a835 c5f5 b135 ba39 9436 4e26 a236
000003d0: 1038 6336 700b 9636 2df5 9237 f115 3237
000003e0: abe4 d936 d285 2f37 e712 5135 0b81 c637
000003f0: 3622 2736 166b a536 78d8 a636 c52e c236
1.1953117e-06 2.7257642e-05 5.7231073e-06 3.5580128e-06 1.6337623e-05 2.798643e-06 7.718469e-06 9.600477e-06
1.8016291e-06 4.7219614e-06 1.969825e-06 6.9472235e-06 3.6549172e-06 8.862724e-07 2.3929813e-06 1.9792935e-06
2.574869e-05 3.6283188e-06 1.6022721e-05 2.440457e-06 1.0815405e-05 4.1185685e-06 9.127843e-06 2.648119e-06
1.2164392e-05 4.249723e-06 5.321693e-06 4.031586e-06 3.5118628e-06 3.5773783e-06 2.0239625e-06 6.2775002e-06
4.1283884e-06 2.2746885e-06 3.7169523e-06 9.166722e-06 7.972297e-06 6.5201293e-06 5.7577918e-06 6.5106638e-06
1.6320594e-06 3.0919327e-05 8.975403e-06 1.4521787e-06 3.0702918e-06 8.860236e-06 2.1465655e-06 1.8138231e-05
2.6812286e-06 1.4189736e-06 4.9296386e-06 5.132225e-06 6.0097486e-06 5.3673516e-06 2.0208536e-05 1.8971978e-05
5.7313337e-06 1.1752812e-05 1.0411668e-06 3.2261265e-05 2.604304e-06 5.5596215e-06 6.892183e-06 8.776824e-06
1.6152151e-05 6.955405e-06 1.104854e-05 1.1427943e-05 2.247259e-06 4.8637166e-06 5.493038e-06 2.4119079e-06
3.7065374e-06 3.0143694e-06 2.6161572e-06 5.710543e-06 7.0986785e-06 3.2970906e-06 3.319422e-06 2.2563452e-05
1.2994325e-05 4.1846597e-06 1.9903322e-05 7.495258e-06 1.110034e-05 2.8598733e-05 2.6300258e-05 6.423971e-06
3.9070846e-06 7.7777395e-06 1.0509131e-05 4.615614e-06 2.8486384e-06 2.801145e-06 2.7833698e-06 3.01055e-06
1.8611876e-05 1.3336514e-05 5.9901326e-06 9.322453e-06 1.681874e-05 1.7087458e-06 2.2042511e-06 3.9356864e-06
4.728208e-06 9.112421e-06 3.2071525e-06 6.1307073e-06 1.0291548e-05 4.027864e-06 3.5867836e-06 1.9134692e-05
2.3722882e-06 8.538103e-06 2.517822e-06 2.9814853e-06 1.7924815e-05 7.5382973e-06 1.1459971e-05 8.012827e-06
1.4930205e-05 1.212324e-05 2.251348e-06 1.4275171e-06 2.3705243e-06 2.5490486e-05 1.1058721e-06 1.5710575e-05
1.1512257e-05 7.126597e-06 1.9832387e-06 7.666234e-06 1.5553956e-05 3.985428e-06 6.173165e-06 6.6184366e-06
3.2993332e-06 2.4029066e-05 2.6964744e-06 3.8828894e-06 4.6799278e-06 7.927621e-06 1.0873163e-05 5.0649774e-06
1.0500373e-05 3.3009946e-06 3.4501381e-06 2.4085593e-05 8.659197e-06 2.3631492e-06 7.171686e-06 1.0227069e-06
1.4165076e-05 5.495518e-06 8.654337e-06 7.643744e-06 8.201725e-06 1.206507e-05 5.7715706e-06 5.844464e-06
1.0903155e-05 1.0050984e-05 3.335091e-06 3.5838148e-05 8.917279e-06 8.367374e-06 1.3838478e-06 3.1448901e-06
2.3325042e-06 6.243643e-06 7.5324792e-06 2.75773e-06 6.080312e-06 2.8198376e-06 1.2150493e-06 4.4897506e-06
1.553795e-05 3.0784797e-06 4.1442368e-06 3.083876e-06 3.0369589e-05 1.3577077e-06 6.0446214e-06 5.4226e-06
1.4541056e-06 9.880469e-06 2.9255777e-06 4.428096e-06 7.0905517e-06 3.1462803e-06 5.6112535e-06 7.947718e-06
8.175239e-07 1.3927745e-05 5.721157e-06 5.7474977e-06 1.2288933e-05 2.4924668e-06 4.7915664e-06 9.346181e-06
1.7134674e-06 5.0276494e-06 1.4291539e-06 4.2350675e-06 3.66574e-06 7.055918e-07 2.1922515e-06 1.6027428e-06
1.4102208e-05 3.0099368e-06 1.2401082e-05 2.0365285e-06 6.206911e-06 2.3612554e-06 6.384302e-06 1.485666e-06
8.137928e-06 2.5718703e-06 4.4414064e-06 4.29135e-06 3.7189418e-06 2.565742e-06 1.1102474e-06 5.582951e-06
3.5914913e-06 1.3069215e-06 2.1991389e-06 8.248002e-06 6.715688e-06 7.123359e-06 4.3246764e-06 7.167842e-06
2.7252738e-06 2.2383068e-05 5.648657e-06 1.5373986e-06 2.0437415e-06 6.2930685e-06 2.5675474e-06 9.951684e-06
1.2588478e-06 1.3259056e-06 4.417464e-06 4.8324355e-06 3.3858269e-06 4.47168e-06 1.7518725e-05 1.0614735e-05
6.4937244e-06 1.046197e-05 7.7886074e-07 2.366353e-05 2.4904853e-06 4.9298496e-06 4.972386e-06 5.7870952e-06

exp_avg f4 [96]
00000000: e7b3 bb39 9796 383a c8cd 03ba 9277 093a
00000010: 0dd0 86b9 c50e 5c3a 09a0 8eb8 f36d d1ba
00000020: 4ffb 69ba f086 9bb9 4017 56ba 4f57 5039
00000030: 3100 c7b9 4446 45ba 55f9 5bba bbc1 b139
00000040: 25dd 983a bd7d 44ba 9e3e 8b39 5798 03ba
00000050: 4c12 aa3a 6d23 8339 ee02 dc3a 8f0f 22ba
00000060: e285 a03a 540c 76ba 4bdb 133a c576 53ba
00000070: c97f ae39 c3b4 7439 7f34 3eba f2b9 4e3a
00000080: 3b6f 60ba ffdd 373a 528c 423a 5018 7dba
00000090: ed00 2eba eb3a 8239 5bd8 01bb afce de39
000000a0: 766d 4b3a f40f d9b9 e74b fc39 754a 2fba
000000b0: c2dd d6b9 d42a 5b3a 541e 8cb7 2d83 50ba
000000c0: 1ea0 cdb9 072a 983a f854 8dba 3608 7539
000000d0: 040b 7a39 cf65 51b9 bb37 feb9 233f 11bb
000000e0: b181 903a fffe 2ab6 fc8a d2b9 3256 77b9
000000f0: 7a59 1e3a 3f2b e2b9 e62b 6fb9 c336 223a
00000100: 2e89 e439 734b f639 1915 46ba fb72 e0b9
00000110: 2083 93ba 91d2 b5b7 0861 633a 4416 7eba
00000120: e4d6 a13a 1d4d 26b9 4f9f 93ba d54e 7739
00000130: 5f18 8239 d099 5eb9 80ee 413a 16cf 98b9
00000140: 6a03 fab9 5732 2fb9 b743 17ba cf27 1539
00000150: b5ba 3a39 e543 7b3a a6ec 4b39 5cf1 9339
00000160: 05fa 1dba 1960 74ba 7c69 9d37 a919 ba39
00000170: 4a73 8338 b6d8 363a e576 64b9 2270 d1b9
0.00035801457 0.00070414826 -0.0005027917 0.00052439526 -0.00025713482 0.0008394535 -6.8008965e-05 -0.0015978202
-0.00089256925 -0.0002966444 -0.00081669167 0.00019868951 -0.0003795638 -0.0007525424 -0.00083913404 0.0003390441
0.0011662586 -0.0007495543 0.000265588 -0.0005019954 0.0012975424 0.0002501266 0.0016785541 -0.0006182128
0.0012246931 -0.00093859923 0.0005640282 -0.0008066709 0.00033283074 0.00023336992 -0.00072557473 0.00078859844
-0.00085614965 0.0007013976 0.0007421422 -0.0009654807 -0.0006637711 0.0002483943 -0.0019812796 0.0004249713
0.00077601464 -0.0004140135 0.00048121737 -0.0006686815 -0.00040982483 0.0008360569 -1.6703423e-05 -0.0007954117
-0.00039219944 0.0011609205 -0.0010782769 0.0002336808 0.00023845962 -0.0001996972 -0.00048488178 -0.0022162877
0.0011024979 -2.5480401e-06 -0.00040157873 -0.00023587866 0.0006040555 -0.000431383 -0.0002280917 0.00061879697
0.00043589756 0.0004697699 -0.00075562444 -0.00042810276 -0.0011254288 -2.1674934e-05 0.00086738216 -0.0009692649
0.0012347368 -0.0001585972 -0.0011262688 0.00023585123 0.0002481369 -0.0002122887 0.0007397905 -0.0002914599
-0.0004768626 -0.00016708054 -0.0005770283 0.00014224577 0.00017807896 0.0009585007 0.00019447747 0.00028217852
-0.00060263305 -0.0009322181 1.8764978e-05 0.00035495803 6.268041e-05 0.00069750415 -0.00021788066 -0.00039947132

exp_avg_sq f4 [96]
00000000: ae40 e034 5e82 e534 abf0 2534 a188 8a34
00000010: cc4f 7135 df77 1534 0efd cf34 80c2 d734
00000020: b6db a234 9516 0134 8637 8335 a158 1934
00000030: 0b96 0d34 0830 f833 e06c 1e34 57fe fd33
00000040: 4e36 6534 da6d 4b34 ca5e 8d34 a2a1 8535
00000050: f4ea 8334 0058 3135 6381 c134 1fb6 4b34
00000060: da35 8f34 274b 9734 8dce 0734 bbec 1b34
00000070: a96a 5534 e2a6 0434 4e64 4f34 6d5e a734
00000080: 6e0d 3d34 a702 4334 cba4 4d34 8f3f d934
00000090: ea48 2434 abe1 e034 2acf 8535 0a30 8f34
000000a0: 2229 9334 5b56 3d34 3f86 3235 55fd aa34
000000b0: a395 ec34 f0a4 3434 d139 9034 8354 2434
000000c0: e5d6 0534 fad4 f334 6136 6c34 194d e233
000000d0: ee03 2334 b807 5934 d0c7 0835 af04 bb35
000000e0: 8cbc 3634 235e 2934 65dd 4334 5759 e033
000000f0: 7c4f dd34 6e06 1034 1235 eb33 a426 4935
00000100: 1810 0935 572c 0534 0cef 9834 e0d2 b533
00000110: 094e 1a35 b5e1 0f34 3ea4 1a35 f5a7 3d34
00000120: eb8e a634 d69c e834 dabf ae34 235b 6634
00000130: 71b0 7d34 3346 ca34 b1c9 8034 4a87 f633
00000140: 509c 2634 e187 8835 4779 c333 fee0 3735
00000150: 4f7c 3c34 ecee bd34 8082 7834 8118 f433
00000160: e1a3 8534 44f3 0435 9229 d833 5c1a e434
00000170: 7dda 2334 3adb 3434 c43a 2e34 fffd 3c34
4.1770312e-07 4.2749429e-07 1.5454377e-07 2.5803914e-07 8.9895616e-07 1.3920315e-07 3.8740876e-07 4.0188388e-07
3.0334712e-07 1.2022277e-07 9.77642e-07 1.4281478e-07 1.3186234e-07 1.1557137e-07 1.4754505e-07 1.1827495e-07
2.1347043e-07 1.8945812e-07 2.6332265e-07 9.956314e-07 2.4571602e-07 6.6065695e-07 3.6043193e-07 1.8972104e-07
2.6675008e-07 2.8180622e-07 1.2647997e-07 1.4521622e-07 1.9875974e-07 1.235417e-07 1.9314868e-07 3.1174878e-07
1.7606882e-07 1.8161755e-07 1.9152064e-07 4.0465645e-07 1.5300216e-07 4.1887446e-07 9.969565e-07 2.667078e-07
2.7410812e-07 1.7633413e-07 6.650552e-07 3.184929e-07 4.40673e-07 1.682381e-07 2.6864157e-07 1.5304435e-07
1.2464768e-07 4.5417238e-07 2.1998996e-07 1.0537969e-07 1.5181988e-07 2.0212508e-07 5.0954714e-07 1.3933949e-06
1.7018664e-07 1.5773598e-07 1.8241333e-07 1.0447064e-07 4.122229e-07 1.3413384e-07 1.0952694e-07 7.4934565e-07
5.1059897e-07 1.2402721e-07 2.8486136e-07 8.466827e-08 5.7483027e-07 1.3400025e-07 5.7608474e-07 1.7663099e-07
3.1023896e-07 4.332748e-07 3.2549616e-07 2.1453575e-07 2.362665e-07 3.767651e-07 2.3988608e-07 1.14798766e-07
1.5516821e-07 1.0172336e-06 9.102455e-08 6.850022e-07 1.7554088e-07 3.5377832e-07 2.3144275e-07 1.1366593e-07
2.4892418e-07 4.952783e-07 1.00658454e-07 4.2487488e-07 1.5260044e-07 1.684356e-07 1.6226392e-07 1.7601268e-07

exp_avg f4 [48, 96]
00000000: ee4f 85bb 954d 773b 336f 683a 6721 c7ba
00000010: ac01 b73a 916b d83a f941 053b 9a91 5439
00000020: 0fbc 92ba ab85 093b a7c7 3cbb 3994 4cbb
00000030: bd35 49bb a65f 0cba 1a11 943a c2d5 af3a
00000040: dfe6 193b 131e 92b9 b317 1f3a 2bfa acba
00000050: 6357 9fba 88dc 03bb 2170 303b 5a84 363a
00000060: 8e13 00b7 bef9 093a c96f 403b d77e 2bbb
00000070: ccb8 31b8 0076 1739 f786 35ba 4ae9 69bb
00000080: f4ce 003b dca6 1c3b d528 253a 6ad8 bc3a
00000090: 3eeb 44b9 d4cc 5fbb 5231 08bb e65d aa3a
000000a0: b899 ccba 2f42 de3a 5f45 303b 093c 83ba
000000b0: c5da cb3a 41a0 293b 93ab 3c3b 4884 6d3a
000000c0: 29c6 9cb7 5d35 d4ba 3533 973a 48d7 46ba
000000d0: 56db fcb6 65be ffba eb91 563b 483b 313b
000000e0: 7fd3 10bb 5177 163b f051 383b 7aed e9ba
000000f0: 8efb 10bb e5e0 cfb9 4c57 b2ba cb8e 74bb
00000100: 4fa3 de3a 4e19 9db9 bce1 c23a 1bdb 863b
00000110: e563 7539 cc8c 0bba ac04 0dbb 7100 3b3a
00000120: 450f 3aba c866 4c3b 27fa 45ba 7d0d 7d39
00000130: 6897 9539 8d96 ccba 958f fc3a 7347 b4ba
00000140: 85ac 35bb fab8 e0ba 6d1a 9cb8 d3d2 f03a
00000150: 9ce0 4739 64c4 4fbb 67ac 883b a342 a539
00000160: c693 9cbb f303 58b8 d153 89ba 0c07 093b
00000170: 537e 2b3a 144a 8cba d10a 0a3b 796f 0cba
00000180: 6c7a 34bb 6336 813a b80b 0139 7215 ddba
00000190: aa5e 473b 3007 073b 27b8 b43a c41c 4dba
000001a0: 4514 0eba 8715 1d3a 468b 22bb 3292 0cb9
000001b0: 1379 49bb 45c3 0939 30cd d23a a1a9 ac3a
000001c0: b971 063b 4772 37ba b632 20b9 ab9f e1ba
000001d0: 40ce 3ab9 99a2 27bb 6ede 5d3b 4b9b 09ba
000001e0: e508 baba 0cc4 08bb 65c9 f03a 2a67 1cbb
000001f0: f5e2 2eba 6f64 6a3a e47b 56ba 0c8e 21bb
00000200: 502f 193b 5460 6f3a 7738 c938 d920 903a
00000210: 3434 b2ba a4d6 10ba d753 e8ba 4f6a b439
00000220: b046 81b9 977b 033b 5c5c 533b 1776 06bb
00000230: dc0d 003b 4966 ae3a 1571 043a 1652 6b3a
00000240: c69c 13bb 3f58 bfb9 e74a d239 089d 70b9
00000250: 8b1c 2539 71b9 b43a 30fb 333b 7a65 393b
00000260: b49a 13bb 8f8d 093b 68e5 d53a 91f7 c6ba
00000270: ba0c 51bb 1663 50ba d105 1c3a 9650 89bb
00000280: d2e7 0238 af86 b539 76cf a9b9 af22 363b
00000290: d33f 57ba 1e27 1a3a bba6 06bb 0a25 70b9
000002a0: 9fe5 32ba 5a8b a53a 7c32 ddba 5356 64ba
000002b0: bd77 153a 87a8 4cbb bf64 633a 3ef6 e1ba
000002c0: a852 24ba 5df5 ebb9 4328 29ba fb61 673b
000002d0: ddc9 b539 7d2b 89ba 40d4 443b d1a3 523a
000002e0: 9697 47bb ca37 8d39 7644 7cba d02d e83a
000002f0: 3172 5439 e424 6239 1e49 543b dcd6 60ba
00000300: 36e9 c23b 211c 89bb e938 f937 2ffd 103b
00000310: 45bb 99bb 1c87 29bb 6151 41bb e275 ad3a
00000320: ce1d 543a 2136 3dba e05d c33b e7ea 1f3b
00000330: 345f b63b 426d 333a 110b 51bb 9a4c 9abb
00000340: 6cb6 78bb 067a 2b3b e1fa edba a125 4f3b
00000350: a795 ceba e4fc 913b 58c3 b0bb ab33 e339
00000360: b146 d53a dde5 923b d5ac 61bb f08a 783b
00000370: 4d4e 453a e7fa 89ba 3eca 223b 0919 b03b
00000380: c0c4 62bb 5bd1 04bb 98f0 1a3a 1453 97ba
00000390: 3847 793b 5b09 5e3b 33f3 213b 2f8a a0b8
000003a0: f139 523a 62fe 82bb 9af4 c6bb 24df 5d3b
000003b0: 75a7 8abb e8d0 33bb 2dd0 29bb 7317 41ba
000003c0: 9ba1 713a 9d5b e1b9 9ae5 49ba 4299 83ba
000003d0: 79cf bb3a 3dd8 a839 bf65 d5bb 108b 3bbb
000003e0: cb9c 8a3b 9fb9 8dbb 2680 06bb a79e 2f3b
000003f0: c33c 983b c450 9e39 3d9f 43bb 1990 093c
-0.0040683663 0.0037735451 0.00088666676 -0.001519245 0.001396229 0.001651155 0.0020333512 0.00020272136
-0.0011194962 0.0020984213 -0.0028805526 -0.0031216277 -0.0030702197 -0.0005354829 0.00112966 0.0013415145
0.0023483557 -0.00027869697 0.00060689 -0.0013197114 -0.001215678 -0.002012046 0.0026922303 0.0006962471
-7.6339475e-06 0.000526335 0.0029363504 -0.0026168132 -4.2372194e-05 0.0001444444 -0.00069247134 -0.003569203
0.0019654604 0.0023903167 0.0006300335 0.0014407758 -0.00018779651 -0.0034149187 -0.002078135 0.0012997955
-0.0015609777 0.001695698 0.0026896817 -0.0010012399 0.0015552869 0.0025882872 0.002878879 0.0009060544
-1.8688925e-05 -0.001619022 0.0011535647 -0.000758518 -7.5357193e-06 -0.0019511698 0.0032740782 0.002704339
-0.0022098718 0.0022959302 0.002812501 -0.0017847263 -0.0022122595 -0.00039649676 -0.0013606339 -0.0037316557
0.0016985926 -0.00029964227 0.00148683 0.004115475 0.00023402234 -0.00053234096 -0.0021517677 0.00071335497
-0.0007097612 0.0031189192 -0.0007552229 0.00024132985 0.000285323 -0.0015608832 0.0019268865 -0.0013754204
-0.0027721238 -0.0017144971 -7.443582e-05 0.0018373377 0.00019061792 -0.0031702751 0.0041709426 0.000315209
-0.004778358 -5.150209e-05 -0.001047725 0.0020908741 0.0006541956 -0.0010703229 0.0021063576 -0.0005357187
-0.002753879 0.0009858127 0.00012306764 -0.0016867353 0.0030421414 0.002060365 0.0013787792 -0.0007824416
-0.00054198905 0.00059922825 -0.0024802252 -0.00013405902 -0.0030742332 0.00013138082 0.0016082879 0.0013173112
0.0020514561 -0.00069979246 -0.0001527768 -0.0017213722 -0.00017815176 -0.0025579093 0.0033854502 -0.0005249276
-0.0014193325 -0.0020868806 0.0018370567 -0.0023865202 -0.00066713925 0.00089413574 -0.0008181913 -0.0024651317
0.0023374148 0.00091314805 9.594944e-05 0.0010996117 -0.001359588 -0.0005525148 -0.0017725182 0.00034411481
-0.00024657464 0.002006268 0.0032251095 -0.0020517164 0.001953951 0.001330563 0.0005052251 0.00089767703
-0.0022523864 -0.00036496107 0.00040110128 -0.00022946682 0.0001574626 0.0013788176 0.0027462952 0.0028289245
-0.002252263 0.0020988917 0.0016318979 -0.0015179982 -0.0031898455 -0.0007949335 0.00059517944 -0.004190515
3.1210315e-05 0.00034623357 -0.00032388762 0.002779167 -0.00082111097 0.00058804627 -0.0020546156 -0.00022901982
-0.00068243773 0.0012630031 -0.0016876007 -0.0008710373 0.00057017413 -0.003122838 0.0008674375 -0.0017239524
-0.000626842 -0.00045005503 -0.0006452838 0.0035306204 0.0003467341 -0.0010465231 0.0030033737 0.0008035275
-0.0030455342 0.00026935182 -0.00096232386 0.0017713849 0.00020260435 0.00021566782 0.0032392214 -0.00085769384
0.005948211 -0.0041842614 2.9709614e-05 0.0022123565 -0.0046915137 -0.0025867885 -0.0029497968 0.0013233984
0.00080915994 -0.00072178437 0.0059621185 0.0024401487 0.0055655483 0.0006844589 -0.0031897465 -0.0047088386
-0.0037950529 0.002616526 -0.0018156433 0.0031608122 -0.0015761153 0.0044551957 -0.0053943805 0.0004333531
0.0016271678 0.0044829682 -0.0034435291 0.003792461 0.00075266213 -0.0010527045 0.0024839784 0.005374078
-0.0034602135 -0.0020266387 0.0005910485 -0.0011545145 0.0038036834 0.0033880088 0.0024711608 -7.655133e-05
0.0008019498 -0.00399761 -0.0060716392 0.0033854926 -0.004231388 -0.002743775 -0.0025911436 -0.000736586
0.00092175015 -0.000429836 -0.0007701755 -0.0010040181 0.00143288 0.00032204567 -0.006512373 -0.0028616823
0.004230117 -0.0043251063 -0.002052316 0.0026797445 0.0046459152 0.00030196283 -0.0029849552 0.008396172

exp_avg_sq f4 [48, 96]
00000000: 805f 6b36 8516 0636 bd72 2d36 e556 1a36
00000010: 6fab 0d36 a8c9 9935 b41c 8236 f2dd 7936
00000020: f530 8836 2fe4 a636 2435 2536 b719 9136
00000030: 340c 6036 6726 b935 7979 3136 1d64 8f36
00000040: f9e1 8936 8ebd 9636 0896 c436 a04e 2e36
00000050: 7f65 7236 f07a f735 e6bf 8d36 9624 b635
00000060: 427a dc35 8bff 6136 22b9 ed35 4700 1336
00000070: 1430 ab36 0c4d a036 6d23 fa35 79e4 1b37
00000080: f6bb ce36 2aa1 5336 4e0f 5a36 f535 8e36
00000090: 3ba0 3c36 5359 3c36 64fe 2237 ca94 e635
000000a0: cdda 4237 99b7 7536 5918 1236 413d 5936
000000b0: a787 e036 a6bb 8a35 1c72 2036 00a3 8335
000000c0: e546 b035 24d1 1736 24aa fd35 8a26 8b36
000000d0: c621 9e36 c887 0e37 a36f 1c36 a295 1536
000000e0: 370b 3636 2f24 c935 21d3 1336 eeb0 2935
000000f0: d6b2 2936 0b1e 0835 e31e 7236 98a3 2b37
00000100: 4fee 9836 441c 2a36 1e45 e836 22ea 3036
00000110: 5d68 3e36 8f8d ad36 7565 cc36 f439 0c36
00000120: 028c 5237 38f8 7835 bf0c 2036 a081 8936
00000130: e5b1 9b36 633b 6836 b1ff 3536 b87a 2f36
00000140: 5005 3e36 e79f 8b36 b4c2 af36 d6af e236
00000150: 8b93 0636 be9b c035 6f95 2736 c4fb e335
00000160: 8ef2 7136 69b7 1936 7cd6 ea35 5813 d235
00000170: 8f79 9036 d2a6 3736 78f2 2e36 5f67 4036
00000180: 3b6e e435 4b6a 6c35 9327 c735 3e0d c935
00000190: 2e40 b635 bcef 4835 ff42 0436 f4b0 de35
000001a0: a17d 2036 eb15 4236 58d2 ce35 b375 e835
000001b0: 14ab e135 6233 8c35 6330 f035 40ff 0336
000001c0: 3f43 dd35 76dd d135 c76b 6136 c81a b535
000001d0: 09d7 be35 06d5 6235 766c 2b36 617d 3135
000001e0: 7765 6035 5fcd ce35 e87e 4935 6b5b a235
000001f0: 7177 2f36 471d 2636 8b1c 8035 ee46 a636
00000200: 29e8 6c36 0fc5 de35 c8d1 b735 4dc6 1136
00000210: b06d 6735 7e9f b235 78cd a836 c771 5a35
00000220: dbb0 c536 157c 2836 379f a235 a04a 0c36
00000230: 4121 7f36 f0af 0a35 4781 e635 ba83 1535
00000240: bb3b 0735 541b 9735 2b9c 8235 d6e0 0636
00000250: 41c7 2b36 20ba 9f36 9a26 b835 ee0c a535
00000260: ae25 8f35 4091 2935 a89f 9435 bc47 0f35
00000270: b84b 9035 4b78 b434 250d ce35 5b41 bb36
00000280: af18 4b36 9691 8c35 abca 8336 f24c ad35
00000290: 66a3 e935 0de2 1c36 27e2 4a36 58d7 a135
000002a0: 031f ca36 e203 0335 326b d935 7a43 2036
000002b0: 205e 2236 83fd 0036 eaf7 9b35 4b0e 9035
000002c0: e9d2 da35 ebf8 2336 def1 3636 36bb 3d36
000002d0: a48b 5b35 fb13 7935 5e7e b535 fb0a 6f35
000002e0: 637c 0236 afc4 c335 f0f0 9835 1094 7035
000002f0: a8c8 0836 cdcc cb35 90b1 fe35 5ffe d835
00000300: eae7 0037 834d 2a36 b853 b136 7730 ae36
00000310: 31dd 6c36 2504 2236 8686 f136 c0f7 c936
00000320: 44de db36 9878 ff36 22ba a536 b893 0f37
00000330: 0c6f 8836 0a2a 1836 8211 7636 9007 0837
00000340: 65c9 f736 144b af36 0ffd f336 e5c8 9836
00000350: ba33 cb36 6cc8 5836 67ad e136 180b 5736
00000360: be38 0836 5d09 df36 c24f 3b36 b87d 9536
00000370: 0768 0437 4bfa e736 34e5 ed35 7435 6937
00000380: cccc 2237 3e71 8f36 25ae b636 3a69 e236
00000390: b4fc a236 5b10 9236 6f83 6737 7067 6336
000003a0: 686c 9b37 ec10 fc36 7f7d 7336 cac8 e936
000003b0: 023e 2237 d03d db35 20e0 8136 177f e935
000003c0: 5c83 f935 3833 2436 9e7f 5736 e166 9e36
000003d0: 1fa0 1037 6097 5237 4ac5 ae36 db16 a636
000003e0: ed3a 6d36 22b3 ec35 41eb 7636 2105 1c36
000003f0: 04cf a536 62c5 c635 7913 b736 fb61 6637
3.5073317e-06 1.9980664e-06 2.5845795e-06 2.2998368e-06 2.1110425e-06 1.1458078e-06 3.8776434e-06 3.723308e-06
4.058815e-06 4.9737496e-06 2.4617848e-06 4.3243303e-06 3.3385704e-06 1.3794751e-06 2.6445762e-06 4.273387e-06
4.109225e-06 4.4924154e-06 5.858721e-06 2.5973786e-06 3.6119889e-06 1.8438714e-06 4.2244674e-06 1.3570705e-06
1.6426859e-06 3.3676358e-06 1.7711757e-06 2.1904868e-06 5.101794e-06 4.777341e-06 1.8636762e-06 9.291915e-06
6.16116e-06 3.153526e-06 3.249344e-06 4.238211e-06 2.810745e-06 2.8066177e-06 9.715182e-06 1.7179639e-06
1.1614245e-05 3.6614713e-06 2.1769868e-06 3.2371174e-06 6.691512e-06 1.0336414e-06 2.3908278e-06 9.8077e-07
1.3133655e-06 2.262249e-06 1.8899486e-06 4.1470093e-06 4.7126987e-06 8.495474e-06 2.3310793e-06 2.2289828e-06
2.7126641e-06 1.4986198e-06 2.20276e-06 6.321487e-07 2.5287059e-06 5.0707666e-07 3.6078789e-06 1.0230484e-05
4.557696e-06 2.5348427e-06 6.922185e-06 2.6362327e-06 2.8372954e-06 5.1722814e-06 6.091485e-06 2.0895359e-06
1.25495735e-05 9.2748405e-07 2.3849277e-06 4.0980085e-06 4.6400696e-06 3.4605262e-06 2.7119934e-06 2.6148464e-06
2.8315299e-06 4.161138e-06 5.238073e-06 6.755795e-06 2.0053437e-06 1.4350442e-06 2.497192e-06 1.6986091e-06
3.6052984e-06 2.2905535e-06 1.7496782e-06 1.5651849e-06 4.3056857e-06 2.7366227e-06 2.6069156e-06 2.86704e-06
1.7019405e-06 8.807153e-07 1.4838173e-06 1.4979521e-06 1.3578735e-06 7.4854665e-07 1.970853e-06 1.6591789e-06
2.3914984e-06 2.892101e-06 1.5409414e-06 1.7319602e-06 1.6813597e-06 1.0445767e-06 1.7895476e-06 1.9669096e-06
1.6485354e-06 1.5636167e-06 3.3590347e-06 1.3493345e-06 1.4218687e-06 8.450155e-07 2.5544118e-06 6.612009e-07
8.3594153e-07 1.5407967e-06 7.506301e-07 1.2096547e-06 2.6146556e-06 2.475297e-06 9.54505e-07 4.955443e-06
3.5301875e-06 1.659764e-06 1.3695617e-06 2.172211e-06 8.621382e-07 1.3308452e-06 5.03071e-06 8.1376896e-07
5.891646e-06 2.5106176e-06 1.2116278e-06 2.0905063e-06 3.8017317e-06 5.166503e-07 1.717396e-06 5.569851e-07
5.037834e-07 1.125833e-06 9.731206e-07 2.0098428e-06 2.5596967e-06 4.760237e-06 1.3720303e-06 1.2297221e-06
1.0665296e-06 6.316877e-07 1.1073325e-06 5.337604e-07 1.0750873e-06 3.3615137e-07 1.5352022e-06 5.5806427e-06
3.0263725e-06 1.0473184e-06 3.927698e-06 1.2911898e-06 1.7407408e-06 2.337739e-06 3.0231984e-06 1.2058108e-06
6.0236794e-06 4.8806953e-07 1.6198958e-06 2.3881134e-06 2.419467e-06 1.922105e-06 1.1620552e-06 1.0732996e-06
1.6303649e-06 2.4433782e-06 2.7260899e-06 2.8272166e-06 8.178706e-07 9.2788804e-07 1.3522329e-06 8.9050417e-07
1.9443912e-06 1.4585875e-06 1.1395005e-06 8.9622426e-07 2.0382377e-06 1.5184283e-06 1.8976152e-06 1.6167286e-06
7.683391e-06 2.5377092e-06 5.284757e-06 5.191246e-06 3.529549e-06 2.4142294e-06 7.1980203e-06 6.0191087e-06
6.5525837e-06 7.613631e-06 4.939052e-06 8.557858e-06 4.0660434e-06 2.2674235e-06 3.6667047e-06 8.1079925e-06
7.384619e-06 5.2241467e-06 7.2714242e-06 4.55334e-06 6.055893e-06 3.230317e-06 6.725709e-06 3.2043954e-06
2.0298608e-06 6.647008e-06 2.7911597e-06 4.4551816e-06 7.892034e-06 6.9134744e-06 1.7724583e-06 1.3900328e-05
9.703635e-06 4.274915e-06 5.4442958e-06 6.747575e-06 4.8573947e-06 4.353043e-06 1.3799275e-05 3.3885844e-06
1.852792e-05 7.512155e-06 3.628287e-06 6.967316e-06 9.67039e-06 1.6334761e-06 3.870591e-06 1.7396841e-06
1.8590176e-06 2.4467718e-06 3.211178e-06 4.7207436e-06 8.62035e-06 1.255222e-05 5.2085716e-06 4.9498462e-06
3.5350051e-06 1.7635505e-06 3.6793792e-06 2.3248797e-06 4.941483e-06 1.4809596e-06 5.456092e-06 1.3731881e-05
